data.pth (torch, 3839 bytes, 6 tensors)

l1.weight f4 [8, 31]
-0.046607103 0.100875765 0.12976523 -0.18797956 -0.08531845 0.31359202 0.26398912 0.31956682
-0.08061668 -0.16250803 -0.18767287 -0.18766063 0.062421 -0.19076331 -0.18769899 -0.18774508
0.27159953 0.23219709 0.2693949 -0.015804987 0.17877276 0.107565396 0.42311913 0.08161277
-0.2334189 -0.11989074 -0.18764956 0.4268862 0.41778734 0.045558684 0.31538588 -0.13500834
0.31668434 0.36311513 -0.17673789 0.028597785 0.16415574 0.3330457 0.41710308 -0.13101973
-0.10008732 -0.15136017 -0.20672128 0.18795724 -0.17919183 -0.17634265 -0.17637475 0.46175912
0.267526 0.26179036 -0.07621089 0.34952763 0.41757014 0.5098268 0.37820455 -0.23350212
-0.20626236 -0.2180858 0.25722674 0.3786164 0.05934116 0.23936124 0.001167038 -0.013432836
0.43121547 0.36779884 0.29954687 0.07984952 0.027212642 0.33198693 -0.17034525 -0.18485816
0.43010718 -0.30553496 0.08973789 -0.25387913 -0.35198703 -0.35193968 0.3214089 0.2676784
0.1663623 0.040676255 0.22112069 0.2029894 0.40701216 0.11071254 0.45268312 0.30543905
0.39163327 0.22611965 0.43566668 0.46511927 0.04205849 -0.13571665 0.17800471 0.18923108
0.61371726 0.42993754 0.1994951 0.0717162 0.33274475 -0.1337331 -0.18448606 0.4114989
-0.2872893 0.21934034 -0.31377792 -0.31362814 -0.30708718 0.32460427 0.35697818 0.06650254
-0.1302132 0.23300941 -0.090124674 0.13694161 0.083581425 0.4749534 0.40026143 0.70459104
0.17978187 0.4023662 0.5136838 0.20402765 0.26437593 -0.070842594 -0.13541976 -0.45007098
-0.014804088 -0.06469116 -0.19416131 -0.14612263 0.25800624 0.39208815 -0.38124076 0.29697362
-0.17141353 0.21879204 0.5243998 0.33445755 -0.086733446 0.06627178 -0.054858714 0.34821385
-0.24028414 0.095218524 -0.18875755 0.012935546 0.04227338 -0.17805016 -0.2938898 -0.28726852
-0.18295963 -0.08567597 -0.08563987 0.3775067 0.3069484 0.5197833 -0.42669767 -0.21969548
0.23474383 0.28444874 0.36890706 0.18920897 0.3082839 -0.4176325 0.36086306 0.20978813
0.30286205 0.6071385 0.25845784 0.11728633 0.34171686 0.2304439 0.22194932 0.3956896
0.29218513 0.44180152 0.31785637 -0.41200826 -0.20703602 -0.4266645 0.24723366 0.47341698
-0.003167066 0.14138529 -0.19567983 -0.25986215 -0.24940926 0.46438536 0.32487687 -0.15471976
-0.15046379 -0.008659927 -0.10489084 -0.24678937 0.5133271 -0.34091184 -0.05615654 -0.39262313
-0.4485406 -0.31444234 -0.14446509 -0.16270098 -0.17707723 -0.015124983 -0.14549875 -0.3314664
-0.13118996 -0.017487092 0.26237434 0.38229254 0.5901803 -0.15097362 -0.21082443 0.29954782
-0.04105378 0.37707987 0.11652667 0.17727005 -0.26113805 -0.23493625 0.28136286 -0.06720266
0.0059578246 0.3156786 0.4223908 -0.44072083 0.4816445 0.12127982 0.45437282 0.3654077
0.33351034 -0.026364883 0.10611462 0.09552458 0.29882944 0.26631254 0.13042259 0.26965854
-0.16913617 -0.18905593 -0.10720475 -0.39736173 0.19344644 0.05188693 -0.24240945 -0.055201646
00000000: 17e7 3ebd f497 ce3d 2de1 043e b77d 40be
00000010: 71bb aebd 228f a03e 9529 873e 439e a33e
00000020: 5c1a a5bd 8168 26be 512d 40be 1c2a 40be
00000030: 2aad 7f3d 7557 43be 2a34 40be 3f40 40be
00000040: 180f 8b3e 13c5 6d3e 21ee 893e 7679 81bc
00000050: 3510 373e 3f4b dc3d 12a3 d83e 9924 a73d
00000060: 5d05 6fbe 4789 f5bd 3527 40be d490 da3e
00000070: 39e8 d53e be9b 3a3d 427a a13e a03f 0abe
00000080: 7324 a23e 3aea b93e c7fa 34be e745 ea3c
00000090: 7118 283e f784 aa3e 898e d53e 092a 06be
000000a0: 95fa ccbd 29fe 1abe beae 53be dd77 403e
000000b0: 107e 37be 2b93 34be 959b 34be b16b ec3e
000000c0: 2bf9 883e 6309 863e 7514 9cbd 49f5 b23e
000000d0: c1cb d53e 0284 023f 07a4 c13e 2e1b 6fbe
000000e0: 7136 53be e251 5fbe 39b3 833e 02da c13e
000000f0: b70f 733d 1d1b 753e 4cf7 983a 6615 5cbc
00000100: 46c8 dc3e 2150 bc3e 355e 993e 2588 a33d
00000110: 0ced de3c 31fa a93e fc6e 2ebe 754b 3dbe
00000120: 0237 dc3e 146f 9cbe 80c8 b73d 72fc 81be
00000130: a537 b4be 7031 b4be b58f a43e 250d 893e
00000140: e15a 2a3e 259c 263d 766d 623e 74dc 4f3e
00000150: e663 d03e 42bd e23d 15c6 e73e 8262 9c3e
00000160: 2884 c83e e98b 673e b40f df3e 1d24 ee3e
00000170: 8645 2c3d 4ef9 0abe de46 363e cbc5 413e
00000180: 931c 1d3f c620 dc3e 7248 4c3e f1df 923d
00000190: 855d aa3e 54f1 08be eae9 3cbe fcaf d23e
000001a0: 9517 93be c19a 603e 80a7 a0be de93 a0be
000001b0: 883a 9dbe 8832 a63e d8c5 b63e 7c32 883d
000001c0: 9c56 05be 059a 6e3e 4993 b8bd 6c3a 0c3e
000001d0: bd2c ab3d 182d f33e 11ef cc3e 1460 343f
000001e0: bd18 383e f102 ce3e c880 033f a0ec 503e
000001f0: 485c 873e ec15 91bd 7aab 0abe b46f e6be
00000200: d88c 72bc cd7c 84bd 39d2 46be 2ca1 15be
00000210: 6519 843e c7bf c83e fd31 c3be ed0c 983e
00000220: 0787 2fbe 050b 603e 113f 063f 053e ab3e
00000230: 4ea1 b1bd 80b9 873d 88b3 60bd 1649 b23e
00000240: 0c0d 76be ee01 c33d a949 41be 9def 533c
00000250: da26 2d3d c852 36be b978 96be dc14 93be
00000260: c559 3bbe e276 afbd f563 afbd 8f48 c13e
00000270: 5728 9d3e 8510 053f 1e78 dabe daf7 60be
00000280: b060 703e 44a3 913e 63e1 bc3e ffbf 413e
00000290: 63d7 9d3e edd3 d5be 0bc3 b83e b3d2 563e
000002a0: bc10 9b3e 6e6d 1b3f 9654 843e d133 f03d
000002b0: 83f5 ae3e 7cf9 6b3e af46 633e d497 ca3e
000002c0: 4a99 953e cf33 e23e 12be a23e bff2 d2be
000002d0: 4001 54be c573 dabe d22a 7d3e b663 f23e
000002e0: 8d8e 4fbb 4ec7 103e 4b60 48be a70c 85be
000002f0: 2465 7fbe ebc3 ed3e 4356 a63e db6e 1ebe
00000300: 2e13 1abe 5ee2 0dbc 02d1 d6bd 5ab6 7cbe
00000310: 6869 033f ff8b aebe 6604 66bd e605 c9be
00000320: 1da7 e5be 96fe a0be a8ee 13be 169b 26be
00000330: bc53 35be c7ce 77bc a0fd 14be f7b5 a9be
00000340: a956 06be 1741 8fbc ee55 863e d9bb c33e
00000350: 0e16 173f d498 1abe 5ce2 57be 555e 993e
00000360: 0228 28bd 9d10 c13e 89a5 ee3d 4886 353e
00000370: e3b3 85be 2193 70be cb0e 903e 8ca1 89bd
00000380: db39 c33b a0a0 a13e 9b43 d83e 29a6 e1be
00000390: 1c9a f63e 8e61 f83d 8ea3 e83e b816 bb3e
000003a0: dec1 aa3e 2bfb d7bc 9f52 d93d 64a2 c33d
000003b0: 2c00 993e 1e5a 883e 808d 053e af10 8a3e
000003c0: 0832 2dbe e197 41be 2a8e dbbd ff72 cbbe
000003d0: d316 463e 6487 543d 2f3a 78be 1f1b 62bd

l1.bias f4 [8]
0.18765368 0.17635247 0.3518938 0.31369033 0.5927165 0.42668715 0.62866026 0.44803378
00000000: 4928 403e be95 343e 6d2b b43e 059c a03e
00000010: 45bc 173f bd76 da3e e1ef 203f af64 e53e

l2.weight f4 [8, 8]
0.45889992 0.7797193 0.7612409 0.32476 -0.7121715 0.72158086 -0.5394226 0.2858412
-0.62117714 -0.22056533 -0.20165204 -0.13843733 0.8305493 0.41529843 -0.2002094 0.85014755
0.5679941 0.24983223 0.02324459 -0.08850405 0.52045137 0.6132944 -0.23170234 0.8629831
0.60180587 0.30175555 0.9710669 0.9825982 -0.46457648 0.42354283 0.6775365 -0.7172234
-0.5216609 -0.22683546 0.12654732 0.27867246 0.40472627 -0.17410767 0.92947614 0.32195783
-0.016453112 0.02079869 -0.024264429 0.09577143 -0.32096934 0.0494431 0.14883296 -0.015426905
-0.3352282 -0.26217356 0.7436228 0.7281674 -0.006359421 -0.74122673 0.8006414 -0.3845942
-0.17823373 -0.5383451 -0.24585365 -0.5672671 0.7118047 0.58966833 0.03313851 0.8730222
00000000: eef4 ea3e af9b 473f afe0 423f f146 a63e
00000010: df50 36bf 86b9 383f 9917 0abf c759 923e
00000020: 7705 1fbf e1db 61be df7d 4ebe 84c2 0dbe
00000030: e19e 543f ffa1 d43e b103 4dbe 45a3 593f
00000040: 1068 113f 05d4 7f3e 706b be3c 9d41 b5bd
00000050: 4d3c 053f dd00 1d3f 6143 6dbe 76ec 5c3f
00000060: f30f 1a3f b47f 9a3e d797 783f 8e8b 7b3f
00000070: f8dc edbe 9bda d83e 0873 2d3f f49b 37bf
00000080: 928b 05bf 8e47 68be 9f95 013e 28ae 8e3e
00000090: 4838 cf3e 4849 32be 26f2 6d3f a8d7 a43e
000000a0: adc8 86bc 0462 aa3c 32c6 c6bc d023 c43d
000000b0: 1856 a4be d984 4a3d ab67 183e 21c1 7cbc
000000c0: 08a3 abbe 9d3b 86be 105e 3e3f 2e69 3a3f
000000d0: b162 d0bb 09c1 3dbf d6f6 4c3f 88e9 c4be
000000e0: e782 36be fcd0 09bf 0fc1 7bbe 6b38 11bf
000000f0: d538 363f 81f4 163f 3fbc 073d 627e 5f3f

l2.bias f4 [8]
-0.092357375 0.20219442 0.08929981 0.48018292 0.5979931 -0.2746256 0.5574749 0.32051933
00000000: dd25 bdbd 0e0c 4f3e d2e2 b63d 89da f53e
00000010: 1316 193f ba9b 8cbe adb6 0e3f 1c1b a43e

l3.weight f4 [3, 8]
-0.37789983 -0.8030643 -0.81350356 0.102575526 0.72573614 -0.03056638 0.6693344 -0.9182547
-0.3398287 0.8098379 0.34558445 -0.8685401 0.30396375 0.12650952 -0.8974641 0.66545177
0.7340148 -0.93167716 0.3978432 0.025666587 -0.7443738 0.07607597 -1.0357761 -0.91507363
00000000: 167c c1be 9f95 4dbf c541 50bf 1e13 d23d
00000010: d8c9 393f 5866 fabc 8059 2b3f bd12 6bbf
00000020: 07fe adbe 8951 4f3f 72f0 b03e a558 5ebf
00000030: 23a1 9b3e b68b 013e 35c0 65bf 0c5b 2a3f
00000040: 65e8 3b3f 6582 6ebf 1bb2 cb3e bc42 d23c
00000050: 488f 3ebf b8cd 9b3d 5094 84bf 4442 6abf

l3.bias f4 [3]
0.13327649 0.16323201 -0.22296785
00000000: a279 083e 4b26 273e af51 64be
