data.pth (torch, 3839 bytes, 6 tensors)

l1.weight f4 [8, 31]
000000 a1 65 83 bd 5e ac 0b 3e 07 9b ad 3e 09 c3 01 3f
       -0.064158686 0.13639972 0.3390734 0.50688225
000010 77 89 ab 3e 95 5a 48 3e db 52 4b 3e c1 58 36 3e
       0.33503315 0.19565804 0.19855826 0.17807294
000020 0e 0d b3 be 54 7a 8d be 2c c8 40 3f 71 fe b0 be
       -0.34970897 -0.2763239 0.7530544 -0.34569123
000030 fe 3f ae 3e af bb 99 be 0b 4c ae be c4 28 11 bf
       0.34033197 -0.30026004 -0.3404239 -0.5670283
000040 ba 8d 98 3d d0 60 11 3e e2 43 21 3c a2 e7 b2 be
       0.07448907 0.14197087 0.009842845 -0.34942347
000050 73 f1 4d 3e 59 dd 7d 3e aa 7d 67 3e 6a d6 3e 3d
       0.20111637 0.24791469 0.22606531 0.0465912
000060 ed d8 fe 3e eb bc d9 3e ff a4 23 3f 36 48 9f 3e
       0.49774876 0.42526945 0.6392364 0.3110978
000070 59 f5 ee 3e 4a a2 e6 3e 27 b2 83 bc a6 77 0f be
       0.4667156 0.45045692 -0.01607616 -0.14010486
000080 99 87 ce 3e 80 19 00 3f f5 c0 1f be 60 47 0a bd
       0.40337828 0.5003891 -0.15600951 -0.033759475
000090 29 9f be 3e b4 3d 96 3e d6 59 dd 3e 60 1e 1a be
       0.37230805 0.2934395 0.43232602 -0.1505065
0000a0 f1 24 4f be 8c b9 1f be f6 d8 1f be 4c 9a 21 3e
       -0.20228936 -0.15598124 -0.15610108 0.15781516
0000b0 b7 6e 36 be 8d c0 1f be 8f b4 1f be 79 98 b2 3e
       -0.17815672 -0.15600796 -0.15596221 0.34881952
0000c0 f0 60 bc 3e 6f 6b ac 3e 32 08 5a 3d d3 46 e1 3e
       0.36792707 0.33675715 0.053230472 0.43999347
0000d0 f6 71 ee 3d d4 c5 a2 3e 1a 05 be 3e 8b 54 ab be
       0.1164283 0.31791556 0.37113267 -0.3346294
0000e0 5a 09 15 be 1c 4c ab be 1e 9e 9a 3e a0 48 d9 3e
       -0.14554349 -0.33456504 0.3019876 0.4243822
0000f0 87 d4 36 3e 05 70 c7 3e 6d 20 0a be 8f 99 7e 3c
       0.1785451 0.38952652 -0.13488932 0.015539541
000100 41 64 a2 3e 03 a8 94 3e 25 63 b8 3e 37 4c b1 3e
       0.31717113 0.29034433 0.3601314 0.3462846
000110 4f 56 ca bd cb 3a 6c 3c e2 28 fe bd fc f0 c5 be
       -0.09879743 0.014418314 -0.124101415 -0.3866042
000120 d1 f8 8b 3e aa d4 02 bf 52 98 2b be 2e 75 ee be
       0.2733827 -0.5110575 -0.16757324 -0.46573776
000130 0b bf f9 be 7c b0 02 bf db ea 87 3e 31 6b 83 3e
       -0.48778567 -0.51050544 0.26546368 0.25667718
000140 43 cb 91 3e e7 6b 20 be f4 e1 d8 3d 5c 80 27 be
       0.2847539 -0.15666161 0.10589972 -0.16357559
000150 6c 5e 88 3e 44 85 62 3e ee e8 ba 3e aa 29 bd 3e
       0.26634538 0.2212115 0.36505836 0.3694585
000160 6a 26 db 3e 65 89 b9 3e 7c d4 c1 3e 41 60 68 3e
       0.42802745 0.36237636 0.37857425 0.22692968
000170 b3 ee 1b 3e 63 17 8c 3d 45 08 b2 3e d6 f5 1a 3e
       0.15227775 0.06840398 0.34771934 0.15132841
000180 22 10 1c be 44 96 10 be 26 97 55 3e 8b ce 64 3e
       -0.15240529 -0.14119822 0.2085844 0.22344415
000190 88 43 bc 3e cc 85 86 3d 87 12 56 3e 91 a9 02 be
       0.36770272 0.065684885 0.20905505 -0.12759997
0001a0 f8 a1 98 3e 8b 3c a7 3e 7c b0 19 3e 06 85 30 3e
       0.29811072 0.32663378 0.1500873 0.17238244
0001b0 f9 a9 a3 3e 66 d7 c1 3e c0 49 a9 3e 7f da b3 3e
       0.31965616 0.37859648 0.3306408 0.35127637
0001c0 35 65 ae 3b c0 0f 85 3e 9c d7 8a 3e 3d ac f6 3e
       0.0053221234 0.2598858 0.27117622 0.48178282
0001d0 1b 3a 46 3e 0d 69 c1 bd de b6 4e bd 99 fa e1 bd
       0.19358103 -0.09443865 -0.050467364 -0.11034126
0001e0 25 3f f5 3e f7 cc f8 3e 11 08 ef bc b7 5d c6 3e
       0.47899738 0.48593876 -0.029178651 0.38743374
0001f0 73 5c 8b 3e 80 18 ea bd 8c 15 a6 3c b2 d1 a0 be
       0.2721897 -0.11430454 0.020273946 -0.31409985
000200 d1 a6 2b be 7b da 2c 3d 1c d1 ff bd 7a 07 07 3c
       -0.16762854 0.042200547 -0.12491056 0.008241529
000210 89 bb a9 3e 75 ce b1 3e 5a 2d 9a be 0b 0f f8 3e
       0.3315089 0.34727827 -0.30112725 0.48448977
000220 64 1d a3 bd ca 30 c2 3e 18 43 e5 3e 0d 6f 0a 3f
       -0.0796459 0.37927848 0.4477775 0.540757
000230 eb 0d 70 bd b2 07 12 be db 4b 25 be 53 f8 ba 3e
       -0.058607023 -0.14260748 -0.16142218 0.3651758
000240 c0 9e 00 3e 78 10 27 be 3b 11 f5 3c b3 18 c2 3d
       0.12560558 -0.16314876 0.029915443 0.09477367
000250 dd 8e 12 be 6a 02 f8 bd 9a 42 a2 be d5 76 03 3e
       -0.1431231 -0.121098354 -0.31691438 0.128383
000260 24 eb 9c 3c 18 85 40 be ae 6d e3 3d 2f 0c de bd
       0.019155093 -0.18800771 0.11104904 -0.108421676
000270 aa 1f 9e 3d 43 ea 0d 3e 6e 4f 00 3f 1c 7d f0 3e
       0.07720883 0.13858895 0.501212 0.4697045
000280 a6 d3 02 3e fc 63 09 3e d4 24 4a 3e b7 2a 2a be
       0.1277605 0.13417047 0.19740611 -0.16617857
000290 72 78 20 be 32 33 c4 3e fa 7f ad be e2 b4 ff 3d
       -0.15670946 0.3832031 -0.338867 0.124856725
0002a0 e4 3e b4 be 45 b9 b4 be f9 c2 9f be 40 c5 96 bd
       -0.35204232 -0.352976 -0.3120344 -0.07361841
0002b0 f2 e4 5c 3e 66 6c 7f 3e a1 23 c9 bd 5d 1e 87 3e
       0.2157171 0.24943694 -0.09821249 0.26390353
0002c0 02 bd 60 3e e4 fb 60 3e 90 1d 48 bd 0a 37 73 3e
       0.21947101 0.21971089 -0.048856318 0.23751464
0002d0 a5 f3 87 3e 94 4b bb 3e d2 3f 97 3e 50 00 96 3e
       0.26553074 0.365811 0.2954088 0.29297113
0002e0 20 80 42 3e 68 14 3e 3e 73 e1 28 3e 7c 79 13 3f
       0.18994188 0.18562472 0.16492252 0.57607245
0002f0 7e dc 1e 3f 18 64 79 bd d0 2b 2e be cb 6b fd 3e
       0.62055194 -0.060886472 -0.170089 0.49496302
000300 8c ec c2 3e 59 48 ce 3e 58 89 10 3e f2 2d 01 3f
       0.38071096 0.40289572 0.14114892 0.5046073
000310 07 5e 7a bd 26 ae 03 3f 7c b3 8d 3e 0d 06 22 3f
       -0.061124828 0.51437604 0.27675998 0.6329048
000320 16 b9 2f 3f 28 5e 41 3e 73 0a c3 3e 1d a9 ec 3e
       0.68641794 0.18883574 0.3809391 0.46222773
000330 23 86 e3 3e 62 c9 b9 3d 43 60 9b 3e d8 db f1 3e
       0.44438276 0.09071614 0.3034688 0.4723804
000340 fe 60 32 3f ca b4 00 3f bc 54 5d be ac 93 ea bd
       0.6967925 0.5027586 -0.21614355 -0.114539474
000350 a9 ef 86 be f5 b7 18 3f 61 f8 3e 3f 37 c4 db 3d
       -0.2635472 0.59655696 0.74597746 0.107307844
000360 bf 3c fa 3e ce 87 6e 3e 72 ec 82 be 29 8c 84 be
       0.4887447 0.23293993 -0.25571018 -0.25888184
000370 0e 49 0c be 6d 02 c7 3d dd 3e 1e be 05 0e 3b be
       -0.13699743 0.097172596 -0.15453668 -0.18267067
000380 e6 55 15 be d9 18 c2 3d d0 1c ff 3e e2 1a f2 bd
       -0.14583549 0.094773956 0.4982667 -0.11821534
000390 75 bd 02 3f 91 32 b9 bd 60 58 ec 3e 4b 7e 9b 3e
       0.5107034 -0.09042848 0.46161175 0.3036979
0003a0 8e bb 10 3f 71 62 dd bd ce ff 45 3c 49 04 a5 3d
       0.56536186 -0.10809792 0.012084914 0.08057458
0003b0 54 80 c0 3e ab 0a b2 bd b9 1a 43 bd 8d ce db bc
       0.37597907 -0.08693441 -0.047632907 -0.02683189
0003c0 2e a7 ff bd 82 68 92 3d 07 51 0c 3e ec dc 21 3c
       -0.12483059 0.071488395 0.13702784 0.009879332
0003d0 11 ec 47 be c1 24 eb bd dd 6c be 3d d3 0e 4e be
       -0.19523646 -0.114816196 0.09298108 -0.20122842

l1.bias f4 [8]
000000 63 2b 20 3f 39 b8 1f 3e f1 b6 02 3f 5e f7 8f 3e
       0.625662 0.15597619 0.51060396 0.28118414
000010 42 68 cd 3e ae 53 b4 3e 91 6f 21 3e 62 59 23 3f
       0.40118605 0.35220093 0.15765215 0.6380826

l2.weight f4 [8, 8]
000000 8e 57 ac 3e 67 ad 47 bf 3d 08 13 3f 98 37 8e 3c
       0.3366055 -0.77998966 0.57434446 0.017360494
000010 15 40 3e 3f ed 88 28 bd cb fa 5b be 04 e5 79 3f
       0.7431653 -0.041146208 -0.21482389 0.97615075
000020 40 91 fd 3c 04 d8 d1 3e 48 80 cb 3e e1 0d 3d 3f
       0.03095305 0.4098512 0.39746308 0.738493
000030 2d 9f b1 3d c8 f6 09 3e 5b 6b 3b 3f b7 56 ca be
       0.086729385 0.13473046 0.73210686 -0.39519283
000040 36 e7 e9 be 93 e7 21 3f a9 61 71 bc 44 d2 4e 3f
       -0.45684212 0.6324398 -0.014732757 0.8078959
000050 17 33 45 3f 1b 54 47 be 7d 7b 94 3f 04 7e 49 3f
       0.7703108 -0.19465677 1.1600186 0.7870791
000060 c7 f8 da be cf 70 45 bf ec eb 81 be ee 6d 9f 3e
       -0.42767927 -0.7712526 -0.25375307 0.31138557
000070 b2 11 67 3f da 20 15 bf ec ae 27 3f f7 b3 83 3f
       0.90261376 -0.5825325 0.65501285 1.0289296
000080 1f 10 a5 3f 44 81 c0 3e 15 43 7f 3f ed 2e 22 3f
       1.2895545 0.37598622 0.99711734 0.63352853
000090 63 9f d1 be ae ca 44 3f 09 50 bd 3e f0 e1 46 3e
       -0.40941915 0.76871765 0.36975124 0.19422126
0000a0 7a 7c 36 be ab 47 45 3d 71 e2 64 bd e8 ae 7b 3e
       -0.17820922 0.04816405 -0.055880014 0.2457844
0000b0 a0 65 41 3d 2b bd 2b 3e ff 47 47 be 6c 04 61 be
       0.047216058 0.1677138 -0.19461058 -0.21974343
0000c0 96 f8 8f be 8d 15 2f 3e ce d2 a4 be 27 b8 36 3f
       -0.28119344 0.17098065 -0.3219208 0.71374744
0000d0 75 ad ec 3e bb ab f9 be 9c ae a5 3f bf 68 59 3f
       0.46226087 -0.48763832 1.2943912 0.84925455
0000e0 0c 53 02 be bf a7 1c 3f 92 63 c0 3e d3 c0 3c 3f
       -0.12726992 0.6119346 0.37575966 0.73731726
0000f0 d5 6e 35 3f 4f 27 fc be 74 6e 4d 3f a4 f7 26 bd
       0.7087224 -0.4924874 0.80246663 -0.040763512

l2.bias f4 [8]
000000 f0 f5 25 3f f0 25 e3 be ad 03 8f 3c 27 e9 b5 3e
       0.64828396 -0.44364882 0.017457807 0.35529444
000010 14 19 d4 3e 3b b8 94 be f8 86 8d 3e cd c8 2d 3b
       0.41425383 -0.29046807 0.27642035 0.0026517392

l3.weight f4 [3, 8]
000000 db d9 07 3f f2 40 35 bf c0 39 14 bf 58 8f 32 bf
       0.53066796 -0.70802224 -0.5790062 -0.69749975
000010 e1 aa 5c 3f 45 2e 0d be ef bb 94 bf 46 a1 13 bf
       0.8619824 -0.13787182 -1.1619853 -0.5766796
000020 8d 6b 16 3f 0d 66 f5 be 63 aa ab 3e b2 1a 4c 3f
       0.5875786 -0.4792942 0.33528432 0.79728234
000030 be d4 80 bf 69 f6 b9 be d6 16 1d 3f df 47 b0 bd
       -1.0064924 -0.3632081 0.6136297 -0.08607458
000040 88 b0 96 bf 02 02 10 3f b8 88 53 3e 72 9c 36 bf
       -1.1772623 0.56253064 0.20657623 -0.71332467
000050 c8 ec 81 3e 73 2e 9d be a2 78 10 be 60 81 44 3e
       0.25375962 -0.306995 -0.14108518 0.19189978

l3.bias f4 [3]
000000 2f b0 36 3f e5 a8 2c be b6 67 3c bf
       0.71362585 -0.16861303 -0.7359575
